{
  "nodes": [
    {
      "op": "null", 
      "name": "ngram_features-Obhr4Qcaqz", 
      "attrs": {"__storage_type__": "2"}, 
      "inputs": []
    }, 
    {
      "op": "null", 
      "name": "numerical_features-H4LTzCgVqw", 
      "inputs": []
    }, 
    {
      "op": "null", 
      "name": "numerical_features-H4LTzCgVqw_fullyconnected0_weight", 
      "attrs": {"num_hidden": "100"}, 
      "inputs": []
    }, 
    {
      "op": "null", 
      "name": "numerical_features-H4LTzCgVqw_fullyconnected0_bias", 
      "attrs": {"num_hidden": "100"}, 
      "inputs": []
    }, 
    {
      "op": "FullyConnected", 
      "name": "numerical_features-H4LTzCgVqw_fullyconnected0", 
      "attrs": {"num_hidden": "100"}, 
      "inputs": [[1, 0, 0], [2, 0, 0], [3, 0, 0]]
    }, 
    {
      "op": "Activation", 
      "name": "numerical_features-H4LTzCgVqw_activation0", 
      "attrs": {"act_type": "relu"}, 
      "inputs": [[4, 0, 0]]
    }, 
    {
      "op": "Concat", 
      "name": "concat67", 
      "attrs": {
        "dim": "1", 
        "num_args": "2"
      }, 
      "inputs": [[0, 0, 0], [5, 0, 0]]
    }, 
    {
      "op": "null", 
      "name": "label_Sacred_texts_weight", 
      "attrs": {"num_hidden": "1"}, 
      "inputs": []
    }, 
    {
      "op": "null", 
      "name": "label_Sacred_texts_bias", 
      "attrs": {"num_hidden": "1"}, 
      "inputs": []
    }, 
    {
      "op": "FullyConnected", 
      "name": "label_Sacred_texts", 
      "attrs": {"num_hidden": "1"}, 
      "inputs": [[6, 0, 0], [7, 0, 0], [8, 0, 0]]
    }, 
    {
      "op": "null", 
      "name": "Sacred_texts", 
      "inputs": []
    }, 
    {
      "op": "elemwise_sub", 
      "name": "_minus61", 
      "inputs": [[9, 0, 0], [10, 0, 0]]
    }, 
    {
      "op": "_power_scalar", 
      "name": "_powerscalar61", 
      "attrs": {"scalar": "2.0"}, 
      "inputs": [[11, 0, 0]]
    }, 
    {
      "op": "sum", 
      "name": "sum73", 
      "inputs": [[12, 0, 0]]
    }, 
    {
      "op": "mean", 
      "name": "mean67", 
      "inputs": [[13, 0, 0]]
    }, 
    {
      "op": "_plus_scalar", 
      "name": "_plusscalar79", 
      "attrs": {"scalar": "1e-05"}, 
      "inputs": [[14, 0, 0]]
    }, 
    {
      "op": "broadcast_div", 
      "name": "broadcast_div73", 
      "inputs": [[13, 0, 0], [15, 0, 0]]
    }, 
    {
      "op": "add_n", 
      "name": "elementwisesum135", 
      "attrs": {"num_args": "1"}, 
      "inputs": [[16, 0, 0]]
    }, 
    {
      "op": "_div_scalar", 
      "name": "_divscalar135", 
      "attrs": {"scalar": "1.0"}, 
      "inputs": [[17, 0, 0]]
    }, 
    {
      "op": "add_n", 
      "name": "elementwisesum134", 
      "attrs": {"num_args": "1"}, 
      "inputs": [[15, 0, 0]]
    }, 
    {
      "op": "_div_scalar", 
      "name": "_divscalar134", 
      "attrs": {"scalar": "1.0"}, 
      "inputs": [[19, 0, 0]]
    }, 
    {
      "op": "broadcast_mul", 
      "name": "broadcast_mul73", 
      "inputs": [[18, 0, 0], [20, 0, 0]]
    }, 
    {
      "op": "MakeLoss", 
      "name": "makeloss67", 
      "attrs": {
        "normalization": "valid", 
        "valid_thresh": "1e-06"
      }, 
      "inputs": [[21, 0, 0]]
    }, 
    {
      "op": "BlockGrad", 
      "name": "pred-Sacred_texts", 
      "inputs": [[9, 0, 0]]
    }
  ], 
  "arg_nodes": [0, 1, 2, 3, 7, 8, 10], 
  "node_row_ptr": [
    0, 
    1, 
    2, 
    3, 
    4, 
    5, 
    6, 
    7, 
    8, 
    9, 
    10, 
    11, 
    12, 
    13, 
    14, 
    15, 
    16, 
    17, 
    18, 
    19, 
    20, 
    21, 
    22, 
    23, 
    24
  ], 
  "heads": [[22, 0, 0], [23, 0, 0]], 
  "attrs": {"mxnet_version": ["int", 10500]}
}